algo/GPR/gpytorch/data_files/RBF_default_tensors.pt (torch, 220591 bytes, 6 tensors)

covar_module.base_kernel.raw_lengthscale f4 [1, 2]
2.2327545 2.3789303
00000000: 73e5 0e40 6540 1840

exp_avg f4 [1, 2]
-0.00037198598 -0.00024614262
00000000: 1d07 c3b9 b40c 81b9

exp_avg_sq f4 [1, 2]
2.1195423e-07 1.4112487e-07
00000000: 8995 6334 1c88 1734

mean f4 [2, 5938]
0.052886963 0.22977448 1.2316513 0.40431213 0.32339478 -1.1669388 -0.5001335 -0.65927887
1.2899323 0.8285847 -0.14663696 -1.0069504 -0.028511047 0.6489029 0.8241272 1.6298447
-1.3165665 -0.20425415 -0.41033554 -0.17781448 -0.063072205 -0.29039 0.4019165 -0.7459793
-0.0897522 0.31519318 0.4080429 0.40035248 -0.9934845 -0.872345 0.08506775 -0.41493225
1.3852692 0.235466 0.9016228 -0.77363586 -1.0571136 -0.8314438 -0.07631302 -0.34794617
0.5939903 -1.1482697 0.36034775 0.025283813 0.18349457 1.3678131 1.8813477 0.4804001
-0.64616394 1.1216965 0.18320465 -1.1884613 -1.0057831 0.49384308 -0.6899948 0.52134705
0.2598343 -0.44309235 1.8541813 -0.29393768 -0.60284424 0.46476746 0.25167084 -0.4369583
-1.7080002 -0.56287384 -0.26901245 1.1031647 0.5943146 -2.2754517 0.10128021 0.41261292
-0.1126709 1.2539291 0.5649872 1.0499802 -0.7197647 0.36032104 -1.0539322 -1.6372986
1.1244731 0.4261856 0.09689331 0.29751587 -2.3203964 0.47541046 -0.1044693 1.3873901
0.6286068 -0.0027618408 0.22966766 -0.41744995 -0.25300598 0.8964348 -0.72634125 1.1866837
-0.86118317 -0.41134644 -0.3097 -0.455925 0.27130127 -0.6484451 -0.94148254 -1.1553116
-0.29743958 0.07936859 1.0349884 0.8159027 0.5170059 -0.59655 0.60458374 0.98807526
0.8611069 0.20767212 -0.8692169 0.32751465 1.0804214 0.22535706 -0.5505371 -0.31609344
-1.8847733 0.5721779 0.93608093 1.0513058 -1.6611328 -0.32167816 0.279274 -0.30950165
0.9336853 1.2858963 -0.009307861 1.5387497 0.33375168 1.2425308 0.4526825 0.531723
0.35794067 -1.3123932 0.9163666 0.92417145 -0.2718544 -1.1669846 -0.72576904 0.32123566
0.80649567 -0.13513184 1.2222557 1.1104355 -0.002708435 -0.5913849 -0.69389343 0.45934296
-0.33348846 -0.040569305 0.28979492 1.1026573 -0.91947174 1.2649078 0.98542786 -1.2852097
-0.10329056 0.4686737 0.07753754 0.33254242 -1.680069 1.5067978 -1.1305847 0.4015808
0.7501831 -0.15448761 0.7242813 0.1186676 -0.107429504 1.7999649 -0.5289078 0.21987152
-0.544281 0.26202393 -1.2012329 -0.6993294 -0.63323975 -1.1163483 1.3866119 -0.36494827
-1.1907425 -0.6946411 -2.0657349 -0.6434326 -0.09686279 0.42681122 -0.20206451 2.1035385
-0.73838043 1.7735596 -0.118392944 1.7305298 -0.001991272 1.8788681 -1.1479797 -1.1593323
0.71778107 0.17350769 0.3488922 -0.6939316 0.18408966 -0.34983826 0.13398743 -1.6984634
0.08880615 1.0678406 -0.5749893 -0.63287354 0.9631882 -0.45104218 1.4992695 -0.267807
-0.70970917 -0.87262726 1.0683823 -0.6527405 0.38541412 -0.79265594 -0.50367737 -0.56520844
0.2365036 0.4026718 1.011116 -0.21018982 0.44537354 0.2630005 0.76122665 -0.76194763
0.30335236 -0.98633575 -0.38445282 -0.88974 -0.68966675 -0.44098663 -0.87893677 -0.61144257
-0.54106903 -1.6036911 -0.32128143 1.1459122 -1.4310989 -0.9819412 0.18804169 -0.97963715
-0.27960968 -1.2715988 0.5638199 -0.5496063 -1.3642807 0.82055664 -1.3337708 -0.58045197
00000000: 00a0 583d 004a 6b3e c0a6 9d3f 0002 cf3e
00000010: 0094 a53e 405e 95bf c008 00bf 80c6 28bf
00000020: 801c a53f 201e 543f 0028 16be c0e3 80bf
00000030: 0090 e9bc 801e 263f 00fa 523f c09e d03f
00000040: 4085 a8bf 0028 51be 8017 d2be 0015 36be
00000050: 002c 81bd 00ae 94be 00c8 cd3e 80f8 3ebf
00000060: 00d0 b7bd 0061 a13e 00eb d03e 00fb cc3e
00000070: 0055 7ebf 0052 5fbf 0038 ae3d 0072 d4be
00000080: 8050 b13f 001e 713e c0d0 663f 000d 46bf
00000090: 804f 87bf 80d9 54bf 004a 9cbd 0026 b2be
000000a0: c00f 183f 80fa 92bf 807f b83e 0020 cf3c
000000b0: 00e6 3b3e 8014 af3f 00d0 f03f 00f7 f53e
000000c0: 006b 25bf c093 8f3f 009a 3b3e 801f 98bf
000000d0: 80bd 80bf 00d9 fc3e 80a3 30bf 0077 053f
000000e0: 0009 853e 00dd e2be d055 ed3f 007f 96be
000000f0: 0054 1abf 00f6 ed3e 00db 803e 00b9 dfbe
00000100: c09f dabf 8018 10bf 00bc 89be 8034 8d3f
00000110: 0025 183f 00a1 11c0 006c cf3d 0042 d33e
00000120: 00c0 e6bd c080 a03f 00a3 103f c065 863f
00000130: 8042 38bf 007c b83e 40e7 86bf 0093 d1bf
00000140: bcee 8f3f 0035 da3e 0070 c63d 0054 983e
00000150: 6081 14c0 0069 f33e 00f4 d5bd 0096 b13f
00000160: 60ec 203f 0000 35bb 002e 6b3e 00bc d5be
00000170: 008a 81be c07c 653f 80f1 39bf 40e5 973f
00000180: 8076 5cbf 009c d2be 0091 9ebe 006f e9be
00000190: 00e8 8a3e 8000 26bf 0005 71bf 40e1 93bf
000001a0: 004a 98be 008c a23d 807a 843f 00df 503f
000001b0: 805a 043f 80b7 18bf 00c6 1a3f 80f2 7c3f
000001c0: 8071 5c3f 00a8 543e 0085 5ebf 00b0 a73e
000001d0: 404b 8a3f 00c4 663e 00f0 0cbf 00d7 a1be
000001e0: 4040 f1bf 407a 123f 00a3 6f3f 3091 863f
000001f0: 00a0 d4bf 00b3 a4be 00fd 8e3e 0077 9ebe
00000200: 0006 6f3f 4098 a43f 0080 18bc c0f5 c43f
00000210: 80e1 aa3e 400b 9f3f 00c6 e73e 001f 083f
00000220: 0044 b73e 80fc a7bf 0097 6a3f 8096 6c3f
00000230: 8030 8bbe c05f 95bf 00cc 39bf 0079 a43e
00000240: 8076 4e3f 0060 0abe e072 9c3f c022 8e3f
00000250: 0080 31bb 0065 17bf 00a3 31bf 002f eb3e
00000260: 00bf aabe 002c 26bd 0060 943e e023 8d3f
00000270: 8062 6bbf 80e8 a13f 0045 7c3f c081 a4bf
00000280: 008a d3bd 00f6 ef3e 00cc 9e3d 0043 aa3e
00000290: 800c d7bf c0de c03f 00b7 90bf 009c cd3e
000002a0: 000c 403f 0032 1ebe 806a 393f 0008 f33d
000002b0: 0004 dcbd 4065 e63f 8066 07bf 0026 613e
000002c0: 0056 0bbf 0028 863e 00c2 99bf 4007 33bf
000002d0: 001c 22bf 80e4 8ebf 807c b13f 80da babe
000002e0: 406a 98bf 00d4 31bf 0035 04c0 00b8 24bf
000002f0: 0060 c6bd 0087 da3e 00ea 4ebe 60a0 0640
00000300: 8006 3dbf 0004 e33f 0078 f2bd 0082 dd3f
00000310: 0080 02bb c07e f03f 00f1 92bf 0065 94bf
00000320: 80c0 373f 00ac 313e 00a2 b23e 80a5 31bf
00000330: 0082 3c3e 001e b3be 0034 093e 4067 d9bf
00000340: 00e0 b53d 00af 883f 8032 13bf 0004 22bf
00000350: 8093 763f 00ef e6be 10e8 bf3f 001e 89be
00000360: 80af 35bf 8064 5fbf c0c0 883f 001a 27bf
00000370: 0055 c53e 80eb 4abf 00f1 00bf 80b1 10bf
00000380: 002e 723e 002b ce3e 406c 813f 003c 57be
00000390: 0008 e43e 00a8 863e c0df 423f 000f 43bf
000003a0: 0051 9b3e 8080 7cbf 00d7 c4be 00c6 63bf
000003b0: 008e 30bf 00c9 e1be 0002 61bf 8087 1cbf
000003c0: 8083 0abf c045 cdbf 007f a4be 40ad 923f
000003d0: 402e b7bf 8060 7bbf 008e 403e 80c9 7abf
000003e0: 0029 8fbe c0c3 a2bf 8056 103f 00b3 0cbf
000003f0: c0a0 aebf 0010 523f 00b9 aabf 8098 14bf

lower f4 [2, 5938]
-0.9399174 -0.76289535 0.23857135 -0.5887131 -0.6692904 -2.159823 -1.4931905 -1.6520333
0.2969435 -0.16603541 -1.1392944 -2.00023 -1.0212942 -0.34385723 -0.16873765 0.636468
-2.309489 -1.196948 -1.4032378 -1.17098 -1.0557468 -1.2831069 -0.59076583 -1.7387087
-1.0823903 -0.67755544 -0.58487767 -0.59232986 -1.9862735 -1.865229 -0.9078826 -1.4076453
0.39219785 -0.7572211 -0.091480255 -1.7663634 -2.0510988 -1.824807 -1.0694256 -1.3408024
-0.3989917 -2.1412835 -0.6326208 -0.9675801 -0.809449 0.37475812 0.8871841 -0.5123562
-1.639507 0.12872499 -0.8094604 -2.1817594 -1.998598 -0.498846 -1.6828384 -0.4713468
-0.7330642 -1.4358102 0.8568906 -1.2866383 -1.5955573 -0.52795523 -0.74119306 -1.4298799
-2.7012935 -1.5556244 -1.2616775 0.1102739 -0.39842057 -3.2728007 -0.89138 -0.5800886
-1.1053138 0.26089144 -0.4278767 0.05712974 -1.7127678 -0.6323459 -2.0468566 -2.630802
0.12898082 -0.56652266 -0.8957525 -0.69561595 -3.316427 -0.51727474 -1.0972602 0.3942756
-0.3657323 -0.9954663 -0.7630358 -1.410114 -1.2456701 -0.09706479 -1.7190361 0.19309485
-1.853904 -1.4040394 -1.3023977 -1.4485756 -0.7213724 -1.6411582 -1.9342359 -2.1481466
-1.290293 -0.9132945 0.042107224 -0.17691219 -0.4757331 -1.5892189 -0.38813895 -0.00480783
-0.13176566 -0.7851351 -1.8625802 -0.66547316 0.08736259 -0.76735026 -1.5432559 -1.3087382
-2.8801947 -0.42072636 -0.056728184 0.05686021 -2.6555476 -1.314321 -0.7134208 -1.3021868
-0.05912769 0.29289412 -1.0020103 0.54543734 -0.6592409 0.24948353 -0.54000753 -0.4609747
-0.6347407 -2.305839 -0.0764637 -0.06864345 -1.2649757 -2.1598234 -1.7185235 -0.6714841
-0.18629616 -1.12784 0.22878689 0.11752838 -0.9954436 -1.5854305 -1.6865796 -0.5333461
-1.3261381 -1.0334573 -0.7028903 0.108979225 -1.9122164 0.2719316 -0.0074091554 -2.2782965
-1.0966192 -0.5240278 -0.9154224 -0.6601313 -2.67373 0.5133914 -2.1234283 -0.5911169
-0.24281043 -1.1471901 -0.2685336 -0.873984 -1.1005806 0.80617356 -1.5217428 -0.77278197
-1.5370325 -0.7306305 -2.1941843 -1.692587 -1.6263859 -2.1091747 0.39353865 -1.3581368
-2.1851335 -1.6875136 -3.0599542 -1.6362802 -1.089571 -0.5658711 -1.1949687 1.1088188
-1.7311194 0.7791677 -1.1111896 0.73613405 -0.99463516 0.8849914 -2.140832 -2.1522326
-0.27495986 -0.8191641 -0.64377475 -1.6866217 -0.80921215 -1.3426676 -0.8586613 -2.6919427
-0.90398854 0.074985325 -1.5685446 -1.6258949 -0.029660344 -1.4438848 0.50478745 -1.2605085
-1.702431 -1.865979 0.075392544 -1.6454623 -0.6072605 -1.7853806 -1.4965115 -1.5579531
-0.7564131 -0.59004796 0.018280983 -1.2030249 -0.54812795 -0.73014575 -0.23211163 -1.7548653
-0.689329 -1.9791381 -1.3771842 -1.8824809 -1.6825114 -1.4336872 -1.8719188 -1.6041162
-1.5337831 -2.596869 -1.3141328 0.15291381 -2.4243066 -1.9747225 -0.80467236 -1.9724107
-1.2723093 -2.2654133 -0.42930907 -1.542279 -2.358047 -0.1722256 -2.326993 -1.5731294
00000000: 6d9e 70bf 1c4d 43bf 0c4c 743e e7b5 16bf
00000010: 9e56 2bbf 8a3a 0ac0 de20 bfbf d475 d3bf
00000020: fa08 983e 3005 2abe 66d4 91bf c503 00c0
00000030: c5b9 82bf 0e0e b0be 90c9 2cbe 91ef 223f
00000040: abce 13c0 9835 99bf 4c9d b3bf ace2 95bf
00000050: b622 87bf d93c a4bf 6e3c 17bf 028e debf
00000060: c48b 8abf 4674 2dbf 8bba 15bf eea2 17bf
00000070: 363e febf d3bf eebf fe6a 68bf b92d b4bf
00000080: 28ce c83e 3ed9 41bf 005a bbbd 3218 e2bf
00000090: 3445 03c0 4793 e9bf f0e2 88bf 6a9f abbf
000000a0: a448 ccbe ca0a 09c0 70f3 21bf 54b3 77bf
000000b0: 0d38 4fbf 4ce0 bf3e 7f1e 633f c729 03bf
000000c0: 5edb d1bf 7cd0 033e cc38 4fbf f2a1 0bc0
000000d0: 0fd2 ffbf be68 ffbe 4067 d7bf 5e54 f1be
000000e0: 18aa 3bbf a1c8 b7bf 2f5d 5b3f 90b0 a4bf
000000f0: 393b ccbf 1328 07bf d4be 3dbf 4e06 b7bf
00000100: fee1 2cc0 b31e c7bf a67e a1bf 48d7 e13d
00000110: c8fd cbbe 9175 51c0 7b31 64bf b080 14bf
00000120: ec7a 8dbf 9093 853e a812 dbbe e000 6a3d
00000130: fa3b dbbf 6ce1 21bf b3ff 02c0 0f5f 28c0
00000140: 8c13 043e a107 11bf 0950 65bf e313 32bf
00000150: 5740 54c0 1e6c 04bf 0673 8cbf 7ede c93e
00000160: 4441 bbbe e1d6 7ebf 5056 43bf 9e7e b4bf
00000170: 1e72 9fbf e8c9 c6bd 6009 dcbf a8ba 453e
00000180: ba4c edbf 90b7 b3bf f8b4 a6bf ed6a b9bf
00000190: ddab 38bf 7911 d2bf 0b95 f7bf 3c7b 09c0
000001a0: 5228 a5bf abcd 69bf a078 2c3d 7828 35be
000001b0: 4a93 f3be 866b cbbf 26ba c6be 008b 9dbb
000001c0: 94ed 06be 9dfe 48bf 0769 eebf 735c 2abf
000001d0: 28eb b23d 1171 44bf 6989 c5bf bc84 a7bf
000001e0: 1c55 38c0 7269 d7be d05b 68bd 40e6 683d
000001f0: 7ef4 29c0 ac3b a8bf bfa2 36bf 0fae a6bf
00000200: e02f 72bd 38f6 953e e041 80bf c8a1 0b3f
00000210: 03c4 28bf 9c78 7f3e ef3d 0abf e004 ecbe
00000220: 5e7e 22bf de92 13c0 0099 9cbd f094 8cbd
00000230: b9ea a1bf 8c3a 0ac0 94f8 dbbf 62e6 2bbf
00000240: 6cc4 3ebe 105d 90bf 1c47 6a3e b8b2 f03d
00000250: 64d5 7ebf 63ef cabf d7e1 d7bf 5f89 08bf
00000260: e5be a9bf 5448 84bf 9ef0 33bf 8030 df3d
00000270: 82c3 f4bf 9e3a 8b3e 80c8 f2bb 9ccf 11c0
00000280: 055e 8cbf b026 06bf 1f59 6abf 5dfe 28bf
00000290: 641e 2bc0 9e6d 033f 40e6 07c0 7053 17bf
000002a0: 4ca3 78be 20d7 92bf 3c7d 89be 6abd 5fbf
000002b0: d3df 8cbf 6461 4e3f 78c8 c2bf 0ad5 45bf
000002c0: 7bbd c4bf 9a0a 3bbf 846d 0cc0 b1a6 d8bf
000002d0: 6a2d d0bf b8fc 06c0 e67d c93e 6dd7 adbf
000002e0: 3ad9 0bc0 7200 d8bf 4ad6 43c0 a171 d1bf
000002f0: 1077 8bbf eedc 10bf bcf4 98bf c6ed 8d3f
00000300: 5295 ddbf 8977 473f 763b 8ebf 4873 3c3f
00000310: 69a0 7ebf cc8e 623f 6403 09c0 2ebe 09c0
00000320: 8ac7 8cbe bdb4 51bf 6cce 24bf 38e3 d7bf
00000330: 8728 4fbf 88dc abbf 3ad1 5bbf ca48 2cc0
00000340: cb6b 67bf e891 993d 12c6 c8bf 531d d0bf
00000350: 40fa f2bc 38d1 b8bf c039 013f 5858 a1bf
00000360: 42e9 d9bf 66d8 eebf 6867 9a3d 829e d2bf
00000370: 6d75 1bbf 5a87 e4bf b08d bfbf 026b c7bf
00000380: 4aa4 41bf 620d 17bf 00c2 953c b8fc 99bf
00000390: 1d52 0cbf d5ea 3abf acae 6dbe 6d9f e0bf
000003a0: de77 30bf 6654 fdbf 9247 b0bf 22f5 f0bf
000003b0: 895c d7bf 1083 b7bf 099b efbf ae53 cdbf
000003c0: 0153 c4bf 1a33 26c0 8135 a8bf 7095 1c3e
000003d0: d727 1bc0 b5c3 fcbf 02ff 4dbf f477 fcbf
000003e0: 08db a2bf 88fc 10c0 66ce dbbe 6669 c5bf
000003f0: 3eea 16c0 e85b 30be 74ed 14c0 4e5c c9bf

upper f4 [2, 5938]
1.0456913 1.2224443 2.2247312 1.3973374 1.31608 -0.17405474 0.49292344 0.33347553
2.282921 1.8232048 0.8460204 -0.013670683 0.96427214 1.6416631 1.816992 2.6232214
-0.32364398 0.7884397 0.58256674 0.81535095 0.92960244 0.7023269 1.3945988 0.24675012
0.9028859 1.3079418 1.4009635 1.3930348 -0.0006955266 0.12053907 1.0780181 0.57778084
2.3783405 1.2281531 1.8947258 0.2190916 -0.06312847 0.16191947 0.9167996 0.64491004
1.5869724 -0.15525591 1.3533163 1.0181477 1.1764381 2.360868 2.8755112 1.4731565
0.3471791 2.114668 1.1758697 -0.19516337 -0.012968183 1.4865322 0.30284888 1.514041
1.2527328 0.5496255 2.851472 0.6987629 0.38986886 1.4574902 1.2445347 0.5559632
-0.714707 0.4298767 0.7236526 2.0960555 1.5870497 -1.2781026 1.0939405 1.4053144
0.87997204 2.2469668 1.5578511 2.0428305 0.27323842 1.352988 -0.061007798 -0.6437952
2.1199653 1.4188938 1.089539 1.2906477 -1.3243659 1.4680957 0.8883216 2.3805046
1.6229459 0.9899426 1.2223711 0.57521415 0.7396581 1.8899343 0.26635355 2.1802726
0.13153762 0.58134645 0.6829977 0.53672564 1.2639749 0.34426796 0.051270843 -0.16247654
0.69541377 1.0720317 2.0278697 1.8087176 1.5097449 0.39611888 1.5973065 1.9809583
1.8539793 1.2004793 0.12414634 1.3205025 2.0734804 1.2180643 0.4421817 0.6765514
-0.8893519 1.5650821 1.92889 2.0457513 -0.66671795 0.6709648 1.2719688 0.68318355
1.9264983 2.2788985 0.9833946 2.532062 1.3267443 2.235578 1.4453726 1.5244207
1.350622 -0.31894737 1.9091969 1.9169863 0.72126687 -0.17414564 0.26698536 1.3139554
1.7992876 0.85757643 2.2157245 2.1033425 0.9900267 0.40266073 0.29879272 1.4520321
0.6591612 0.9523186 1.2824801 2.0963354 0.073273 2.257884 1.9782648 -0.29212296
0.89003813 1.4613752 1.0704975 1.325216 -0.68640816 2.500204 -0.13774103 1.3942785
1.7431767 0.8382149 1.7170962 1.1113192 0.88572156 2.7937562 0.46392727 1.212525
0.44847047 1.2546784 -0.20828164 0.29392827 0.3599065 -0.123521864 2.3796852 0.6282402
-0.19635159 0.29823142 -1.0715156 0.34941494 0.8958455 1.4194936 0.79083973 3.0982583
0.2543586 2.7679515 0.8744037 2.7249255 0.9906526 2.8727448 -0.1551274 -0.1664319
1.7105219 1.1661794 1.3415592 0.29875845 1.1773915 0.64299107 1.1266361 -0.70498407
1.0816009 2.060696 0.41856593 0.36014783 1.9560367 0.54180056 2.4937515 0.7248945
0.28301257 0.12072444 2.061372 0.33998126 1.3780887 0.20006865 0.48915672 0.4275363
1.2294203 1.3953916 2.003951 0.7826452 1.438875 1.2561467 1.754565 0.23097003
1.2960337 0.006466627 0.6082785 0.10300094 0.30317795 0.55171394 0.11404526 0.38123113
0.45164502 -0.61051315 0.67156994 2.1389105 -0.43789124 0.010840058 1.1807557 0.0131364465
0.71308994 -0.27778447 1.5569489 0.44306642 -0.37051433 1.8133389 -0.34054863 0.41222554
00000000: 36d9 853f 0e79 9c3f ff61 0e40 f4db b23f
00000010: 4f75 a83f 683b 32be 7660 fc3e 4ebd aa3e
00000020: 611b 1240 c65e e93f cb94 583f 00fb 5fbc
00000030: 8ada 763f 0422 d23f 3293 e83f dce2 2740
00000040: aab4 a5be 2fd7 493f 1823 153f d7ba 503f
00000050: 6dfa 6d3f b2cb 333f 3782 b23f 10ac 7c3e
00000060: 8823 673f a36a a73f c652 b33f f74e b23f
00000070: 0054 36ba 30dd f63d 7ffc 893f 72e9 133f
00000080: bb36 1840 1f34 9d3f 6086 f23f 8c59 603e
00000090: 8049 81bd 38ce 253e 61b3 6a3f d318 253f
000000a0: e921 cb3f 68fb 1ebe 7839 ad3f aa52 823f
000000b0: 8695 963f 7618 1740 6008 3840 6490 bc3f
000000c0: 76c1 b13e b856 0740 e682 963f e8d8 47be
000000d0: 8078 54bc b046 be3f 020f 9b3e 18cc c13f
000000e0: 8c59 a03f 42b4 0c3f 847e 3640 20e2 323f
000000f0: e49c c73e 0a8f ba3f ea4c 9f3f 9b53 0e3f
00000100: 0af7 36bf cc18 dc3e 4c41 393f c625 0640
00000110: 7224 cb3f de98 a3bf 3e06 8c3f 58e1 b33f
00000120: d945 613f 4ece 0f40 aa67 c73f bcbd 0240
00000130: e8e5 8b3e b62e ad3f 50e3 79bd c3cf 24bf
00000140: 83ad 0740 509e b53f 0476 8b3f f233 a53f
00000150: d284 a9bf 8fea bb3f 0b69 633f 305a 1840
00000160: b1bc cf3f e16c 7d3f a876 9c3f 3c41 133f
00000170: 3c5a 3d3f 5ee9 f13f 7e5f 883e 9689 0b40
00000180: ccb1 063e 1fd3 143f f0d8 2e3f da66 093f
00000190: eec9 a13f e443 b03e 6001 523d 4060 26be
000001a0: a306 323f 5638 893f 9ec8 0140 0f84 e73f
000001b0: 523f c13f 18d0 ca3e 8a74 cc3f 0b90 fd3f
000001c0: 324f ed3f 4ea9 993f 7040 fe3d 3a06 a93f
000001d0: e7b3 0440 88e9 9b3f a465 e23e 7932 2d3f
000001e0: 91ac 63bf 9c54 c83f dee5 f63f 97ed 0240
000001f0: 07ae 2abf 59c4 2b3f e0cf a23f 1ee5 2e3f
00000200: 7f97 f63f 79d9 1140 c0bf 7b3f 4e0d 2240
00000210: c2d2 a93f b613 0f40 f801 b93f 3820 c33f
00000220: 2fe1 ac3f 124d a3be 9060 f43f cf5f f53f
00000230: f2a4 383f 3c53 32be 4eb2 883e b12f a83f
00000240: 0e4f e63f 218a 5b3f 6ece 0d40 2a9d 0640
00000250: 6472 7d3f 8c29 ce3e 5cfb 983e 30dc b93f
00000260: cabe 283f 27cb 733f 4f28 a43f 5c2a 0640
00000270: 2810 963d 2c81 1040 c837 fd3f 2491 95be
00000280: 8ad9 633f 580e bb3f 1006 893f aea0 a93f
00000290: 72b8 2fbf 5803 2040 fc0b 0dbe b877 b23f
000002a0: 6a20 df3f 4095 563f cfc9 db3f b53f 8e3f
000002b0: a6be 623f e7cc 3240 e087 ed3e 0534 9b3f
000002c0: ec9d e53e 4d99 a03f c847 55be c47d 963e
000002d0: aa45 b83e 08f9 fcbd c34c 1840 5ad4 203f
000002e0: 6410 49be cab1 983e 6c27 89bf 84e6 b23e
000002f0: 2156 653f f7b1 b53f 7974 4a3f dd49 4640
00000300: 4a3b 823e 1e26 3140 ecd8 5f3f 2e65 2e40
00000310: 699b 7d3f 0ddb 3740 b8d9 1ebe 206d 2abe
00000320: 62f2 da3f 5e45 953f 36b8 ab3f def6 983e
00000330: c4b4 963f 109b 243f 9d35 903f d679 34bf
00000340: e671 8a3f 71e2 0340 464e d63e 4c65 b83e
00000350: 695f fa3f 71b3 0a3f a099 1f40 b092 393f
00000360: 06e7 903e 603e f73d 85ed 0340 0612 ae3e
00000370: 3665 b03f ccde 4c3e c072 fa3e 0ae6 da3e
00000380: a55d 9d3f 319c b23f bc40 0040 705b 483f
00000390: 0e2d b83f 6ac9 a03f 9695 e03f 6883 6c3e
000003a0: 6fe4 a53f 00e6 d33b 24b8 1b3f 28f2 d23d
000003b0: 243a 9b3e 203d 0d3f 9090 e93d ba30 c33e
000003c0: 043e e73e 974a 1cbf 02ec 2b3f e9e3 0840
000003d0: 4833 e0be 809a 313c 0123 973f 403a 573c
000003e0: 108d 363f c439 8ebe 1a4a c73f 9ad9 e23e
000003f0: 0eb4 bdbe 7d1b e83f 645c aebe 3a0f d33e
